Hello.onnx (onnx, 205430 bytes, 9 tensors)

layer1.weight f4 [32, 1536]
00000000: ba45 a2bc 9f7c 233b 3dc4 c23c 41ce ad3c
00000010: a650 ccbc 608e 1d3c be53 04bb ccfb 4d3a
00000020: 7a18 c13c 90c0 8a3c 0c19 6abc 4cbd cb3c
00000030: c45e 643c 72d2 09bc 9937 be3c 0d49 5fbb
00000040: 6dc4 debc f3e2 d83c 464c babc 66be 1e3b
00000050: acde f43c 3c0a 2d3c 3d20 2bbc e97e 17ba
00000060: bd4a e6bb e0c3 573b bde0 2dbc 0edb 10bc
00000070: 7aff 723c 5a23 0c3d 4a93 77bc e54c a4ba
00000080: 5831 cabc 3fc7 4e3c dad5 93bb dc33 4e3c
00000090: 968f b83c 0dab 85bc 1df7 a73b b0e1 b23b
000000a0: eefd f0b9 fb27 913c 8fe0 eb3c daa9 2d3c
000000b0: 74e6 473c 0308 223c f63b d0bc e021 a3bb
000000c0: 22f1 d53b e374 b03b 088d 12bd 8064 fabc
000000d0: 02c2 083c 86c8 3abc 6482 6e3c 91b9 e9bc
000000e0: 38da b6bc beb5 8b3b 4f9a c43c fd16 0f3c
000000f0: ba39 7e3c 9d9f 7b3c 5ae0 693b 656c 283c
00000100: 5433 3dbc 9cd7 e73b df51 6cbc dd41 d83c
00000110: d561 02bc 6068 adbc 93e0 33bc 4936 2cbc
00000120: 4cf2 c4bc 3504 47bc 2ced 31bb bd99 b2bc
00000130: 0af2 ab3c 9811 133d c438 543b 0fce 3539
00000140: 47d3 d73c 2380 083d 6e42 d13a 8d9e d1bb
00000150: e1da 9c3c 749b b33b 2dc4 e53a 2a29 07bc
00000160: ed22 6bbb 2680 933c 928b 93bc ee7a d33b
00000170: 2c4f 043c f192 bcbc 6467 04bd 72b8 c0bc
00000180: 39a2 d7bc 2d7a 1dbb 02f0 643c 7d1f 813c
00000190: 0433 06bb 73fd 51bc 0df0 f73b 7164 fbbc
000001a0: ca0a 913c 8084 783c c7bf a03c 669e d73b
000001b0: e188 4dbc 69e3 0fbc c6e9 83bc eebd 12bb
000001c0: b315 c83b f78b ceba d486 7f3c 9e51 833c
000001d0: c6a4 1c3c 7775 183b 75fa 9fbb 866f c93b
000001e0: 895a 0ebd e36a 8cbc 1b09 a0bc 5aaa 303b
000001f0: 12d7 953c c5c5 c73c 6400 4f3a a1ce a53b
00000200: 4a9c a1bc 8c5e 413d 94fa c93c c2cd a13b
00000210: 7281 70bc 5026 423b 692b 49bd e14b 9b3c
00000220: d37a e1bb 94f1 03bc 4bd7 503c 359b 29bc
00000230: b811 1abc ecfb 2c3c f125 aebb 9a4b 82bc
00000240: f52e 4e3c b490 863c 6e85 26bc 9434 403c
00000250: 51f7 dd3c 01e4 26bd 9cd1 96bc 16b7 153d
00000260: 98cf 1a3c a6fa 733c d763 ca3a 9953 453b
00000270: 67dc 693b ec87 953c c051 fcbc 1e0b a0bb
00000280: 5303 a5bb 092d 4a3c 65e1 e53a 84a3 d0bc
00000290: 8a15 b6bc 7ebf 1ebb 6374 8d3b 8618 003d
000002a0: 3185 b2bc e758 d9bb c9ea 983b 715b 34bb
000002b0: 0bd5 8c3c a735 b53a 865b 8f3c 3695 0c3c
000002c0: 9127 073c e11c 1abc 0402 863c 59cc 82bc
000002d0: c2e1 cc3b 953c 08bd ca03 263c 0391 bb3c
000002e0: bd6b 413c 0d76 af3c ec12 e73c 8969 503b
000002f0: e12f 2c3c c499 b53b 30ba c2bc 4648 943c
00000300: 7cf4 0cbc b72a 243c 23ed 9dbb 8d77 183d
00000310: 5da6 973c c21d 2cbc cfe5 9dbb c372 443b
00000320: 053a 4a3c 8883 95bc 3599 acbc ebac f6bb
00000330: 364e ec3b 5432 233a d91a 73bc fc74 a13c
00000340: a339 b93c 5a9b 4cbc b415 233c e05a 1b3c
00000350: 2ce9 d23c ffc4 3dbc 8d80 8f3c 2e33 b3bc
00000360: dc1b 593c 91b4 fdbc 3e8b 7aba 53de e9bc
00000370: 8a0d 813c bfbc 263d e8cf d2bb 0170 eabb
00000380: 1341 913b 661d 9c3c 9917 4a3c 09ef 753c
00000390: 6db6 483c 3845 14bb 89a2 c6bb b74b c13c
000003a0: d4a5 9ebb 17ba 6d38 cd84 983a 3672 54bc
000003b0: de64 28bc d162 e13c 80b9 313b a2ca 803c
000003c0: b92d ccbb 3f30 31ba 4537 a03b d353 dfbc
000003d0: af9b 4a3b dc11 a0bb ce04 733c 026f 963a
000003e0: bef1 1abd a994 dc3c 2b9b a9bc d949 983c
000003f0: 548f 77bb 7a1e 2139 537a 1a3a af27 49bb
-0.019808639 0.0024946106 0.023775214 0.021216514 -0.0249408 0.009616464 -0.0020191516 0.000785765
0.023571242 0.016937524 -0.014288198 0.024870537 0.0139386095 -0.0084119905 0.02321987 -0.0034070641
-0.027193272 0.026475405 -0.022741448 0.0024222373 0.029891334 0.010561522 -0.010444698 -0.0005779104
-0.0070279525 0.0032923147 -0.010612664 -0.008841289 0.014831418 0.0342134 -0.0151108 -0.0012535123
-0.024681732 0.012620746 -0.004511577 0.012585606 0.022529405 -0.016316915 0.0051258937 0.005459033
-0.0004596556 0.01771926 0.028793601 0.010599578 0.01220094 0.009889605 -0.025419217 -0.0049784034
0.0065289894 0.0053850277 -0.03577903 -0.0305655 0.008347036 -0.011400348 0.014557455 -0.028530868
-0.022320852 0.0042636087 0.023999361 0.008733508 0.015516693 0.015357879 0.0035686702 0.0102797495
-0.011547882 0.007075263 -0.014423816 0.026398594 -0.007957895 -0.021167934 -0.010978836 -0.010510989
-0.024041317 -0.012146999 -0.0027149422 -0.021801824 0.020989437 0.03590545 0.0032382468 0.00017338268
0.026345862 0.033325326 0.0015965232 -0.0063970746 0.019147338 0.005481178 0.0017529778 -0.00824956
-0.0035878972 0.018005442 -0.018010888 0.0064538633 0.008075517 -0.023019286 -0.032325163 -0.02352545
-0.026322471 -0.0024029121 0.013973238 0.015762085 -0.0020477185 -0.012816775 0.007566458 -0.030687543
0.01770534 0.015168309 0.019622697 0.006580162 -0.0125448415 -0.008782246 -0.016102683 -0.002239104
0.0061061024 -0.0015758266 0.01559611 0.016030129 0.009560769 0.0023263374 -0.0048821517 0.006147328
-0.03475431 -0.017140811 -0.019535592 0.0026957006 0.01829103 0.024386296 0.00078964815 0.0050600325
-0.019727845 0.047209308 0.024655618 0.0049378583 -0.0146793 0.0029624887 -0.049113665 0.01895708
-0.006881097 -0.008053202 0.012746642 -0.010351946 -0.009403639 0.01055811 -0.0053145816 -0.01590519
0.012584438 0.016426422 -0.010163648 0.011731286 0.027095469 -0.040744785 -0.018410496 0.036551557
0.009448908 0.014891302 0.0015441132 0.0030109643 0.0035684349 0.01825329 -0.0308007 -0.004884138
-0.0050357967 0.012339839 0.0017538486 -0.025468595 -0.022227068 -0.0024223025 0.004316853 0.031273387
-0.021792026 -0.0066329124 0.0046666604 -0.0027520324 0.01719143 0.0013825194 0.017499696 0.008580497
0.008249179 -0.009406299 0.016358383 -0.015966581 0.0062524984 -0.0332609 0.010132739 0.022896295
0.011805472 0.021418596 0.028207265 0.0031801185 0.010509462 0.005542012 -0.023770422 0.018100869
-0.0086032115 0.01001995 -0.0048195287 0.037223388 0.018511945 -0.010505142 -0.004818655 0.002997563
0.0123429345 -0.018251196 -0.021069149 -0.0075279376 0.007211472 0.0006225456 -0.014837944 0.019709103
0.022610491 -0.012488211 0.009953905 0.0094821155 0.02574595 -0.011582612 0.017517352 -0.02187499
0.013251271 -0.03096989 -0.0009557492 -0.028548395 0.015753526 0.040707346 -0.0064334758 -0.007154465
0.0044328063 0.019056987 0.012334728 0.015010604 0.012250525 -0.0022624265 -0.006061856 0.023595674
-0.0048415456 5.6678513e-05 0.0011636257 -0.012966683 -0.010277955 0.02751294 0.0027118623 0.015721623
-0.0062310365 -0.00067592034 0.004889401 -0.02726165 0.0030915549 -0.0048849415 0.0148326885 0.0011477175
-0.0378282 0.026926355 -0.020703873 0.0185899 -0.003777464 0.0001536551 0.00058928615 -0.003069382

layer1.bias f4 [32]
00000000: 30cd 84bc c244 3fbb 4a94 d3bc 35f9 c13c
00000010: dc2a 8dbb b4b9 72bc 1d85 133c 5f4b 7abc
00000020: af8a 923c 61b8 7d3c 1a07 b3bb 1d8b d3bc
00000030: 40d3 bfbc 4d46 d6bc 1eb7 1839 622f 293c
00000040: 1b0e 813c 04e4 5bbc fb1d 9a3b 9d34 54bc
00000050: c029 833c ce80 933c f674 7dbc ac4c db3b
00000060: 2052 3d3c 8cd5 043c c3d5 463c af24 fe3b
00000070: ac2a 993c 5d96 243c 80e1 5a3c 10ee cebc
-0.016211122 -0.002918527 -0.025827546 0.023678401 -0.0043080878 -0.014814783 0.009003905 -0.015276759
0.017888395 0.015485854 -0.005463493 -0.02582317 -0.023416162 -0.026156569 0.00014564066 0.010326238
0.015753796 -0.013421062 0.004703281 -0.012951997 0.016011119 0.018005755 -0.01546978 0.0066924896
0.011555225 0.008107554 0.012135926 0.007755838 0.018697105 0.010045615 0.013359427 -0.025260001

layernorm1.weight f4 [32]
00000000: 7379 7f3f db1c 7c3f f150 7e3f 51b0 7d3f
00000010: cd63 813f 7242 7d3f 926c 723f a0f0 7c3f
00000020: 4539 7c3f 413b 7a3f 8cb9 813f 417c 823f
00000030: 5d8c 7c3f 286a 7d3f c023 813f 0530 7b3f
00000040: 2e42 7d3f 1485 7f3f f7d3 7a3f 0bda 7d3f
00000050: 83ff 813f 1e53 7c3f 87de 7d3f da05 823f
00000060: a20f 7a3f 314d 7f3f 0e42 7d3f 8823 7f3f
00000070: e69e 7b3f fdd8 7f3f 9744 823f 6357 7f3f
0.9979469 0.9848153 0.99342257 0.9909716 1.0108582 0.9892951 0.94696915 0.98804665
0.98524886 0.97746664 1.013475 1.0194169 0.9865168 0.98990107 1.0089035 0.98120147
0.9892911 0.99812436 0.9797968 0.9916083 1.0156101 0.98564327 0.99167675 1.0158036
0.97680104 0.9972716 0.98928916 0.9966359 0.98289335 0.9994047 1.0177182 0.99742717

layernorm1.bias f4 [32]
00000000: edbc 213c 13fc ecba 944e 10bc 8e97 81bc
00000010: b9e5 153c f2e6 3fbb 51f9 213c a48a 453c
00000020: 0be8 a13b 7e5b b1bc abf0 8d3c 865a 893b
00000030: 5e2f 30bc 9522 01bc 96fc 8bbc 194c 0abc
00000040: 9a05 0c3c 9a60 5cbc eec0 8c3c e308 81bb
00000050: be66 833c 093c 82bc 25bb 31bc cb4b 8e3c
00000060: dc1a 1b3c fe3f 62bc ea4f 6dbc 7992 1fbb
00000070: 43a2 b13c 4a09 fa3a 8adc ff3a 74fa 68bc
0.009871704 -0.0018080495 -0.008807797 -0.015819337 0.009149008 -0.0029281941 0.009886102 0.01205698
0.0049409918 -0.021650072 0.017326673 0.0041916994 -0.010753481 -0.00788178 -0.017088216 -0.008440995
0.008546257 -0.013450766 0.01718184 -0.003937827 0.016040202 -0.015897768 -0.010847841 0.017370125
0.009466853 -0.013809202 -0.014484385 -0.002434878 0.021683818 0.0019076255 0.0019520682 -0.014219869

blocks.0.fcn_layer.weight f4 [32, 32]
00000000: 0139 5a3d 9132 bebd d2df bbbd 0d08 bd3d
00000010: 3196 cebd d9dc 203e 7c37 efbd 9d91 8b3d
00000020: cf71 6cbc ee85 d5bd 9fcd cb3d 6be1 393e
00000030: 7d7b 093d 9758 d03c 6c7f 9ebd d352 863d
00000040: 68f8 a13d 993b 2bbe 1b9e 303d 04ad cb3d
00000050: d18c 303d 7c4b 2b3e e807 953d 64b0 e9bd
00000060: 6597 ce3c 96c3 df3d 3048 0dbe 6463 b0bd
00000070: 3ee3 01be ad58 353e 2fef 18bd 8cff e03c
00000080: 145b 16be edc9 0cbe 99da 19be e4c2 6bbd
00000090: 69c8 12be 1c9d 28be 2c64 c83d 4104 74bd
000000a0: 5bdb 16be 20e7 433e 1bbe 233b fa6d 333e
000000b0: 53a7 dfbd b749 893d 7997 4b3c 2313 77bd
000000c0: 9e91 83bd 8f6f 11be 0401 2f3e ecd6 b4bc
000000d0: 60c5 d53d 1f06 11be 192f 9fbd 2834 02be
000000e0: d9cb f3bc 7842 ad3c 465a 5d3c 56dc bb3d
000000f0: 8f06 2f3e 6b32 2f3e 8908 cd3d d411 1cbe
00000100: 6f30 113e 981c dabd 93eb 6b3d 23ce ec3d
00000110: 7c05 db3c 157b febd 905e 1abd 182b 943d
00000120: aabb d33c 55ae 49bb f220 083e 3e77 d5bd
00000130: 2573 08be 623e 103e 872b 073e e578 743b
00000140: 49cb 17be 928f 24be 571a 313c e19c 94bd
00000150: 288f fa3d f639 00be 2a54 7fbd 99fc c5bc
00000160: b8b3 4bbd 2358 2a3e f5cd d3bc 24dd 503d
00000170: 99f9 aebb e637 02bc e244 76bd b7d3 2abe
00000180: f843 6b3d 5bce dbbc a2fa 6c3d 9c5b 88bd
00000190: dcd9 20be 439d 5d3d f2e5 a1bd 88c7 ba3d
000001a0: 8dd3 193e 66a8 0cbd 34ac f13d 2ec8 27be
000001b0: 2b4b bb3d 5046 0fbd 89c7 ea3d 2278 a13d
000001c0: 9ce2 b03c 9239 1b3b c701 10bd e3af f63a
000001d0: cdbd 4b3c 16dd 63bd ca02 563d f512 9c3d
000001e0: f132 f13d a408 18be 42bf edbd 65c7 a5bc
000001f0: 8e85 f83c 73aa babd 5f56 403d 1bfd 753d
00000200: d588 c63d a477 22be 7c3c 5a3d 7f79 b6bd
00000210: 3e42 07bc 245a 26be 6855 153e 3a8b 2b3d
00000220: efa6 ddbc 7ddc 163e df24 d3bd e99a 383e
00000230: 8170 a7bd fe68 c83d 8d32 a5bd 6674 6e3c
00000240: be21 29be 7776 c13d a97d 233d 7287 ea3d
00000250: a4f0 5cbd 2911 e93d f6fa 9ebd d559 37be
00000260: 0c62 e53d adb6 843d c9a2 e03d 392d 9dbd
00000270: 295b bfbd 208c 4c3e a00d d83d 5322 183e
00000280: 9455 503d 44eb 79bd 8741 ec3d 09f2 20be
00000290: 3d0f 203e 3125 adbd b43c 643d f9d3 4c3d
000002a0: c57c dbbd fc50 1dbe a10d 283e 4323 e6bd
000002b0: cd0e 0b3c b9a0 96bd c2f3 ee3c 8514 efbd
000002c0: e89f 4dbc d00a 8d3d 0fa5 31be 813c 0c3d
000002d0: f22f 353e a3f8 24be 52fa a93d a1be 50bd
000002e0: 7afb d13d 5d9a 9c3d 37b6 e5bd 61b1 b9bd
000002f0: 3295 73bd bd72 08bb b697 3bbe 293c ac3d
00000300: fd57 343e e590 10be 52b4 b63d 072f eebd
00000310: 510f 203e b25c 173c 18a2 d1bc c7e5 73bc
00000320: 8c84 8abd 9d54 d73c 4187 c83b d19c aebc
00000330: 911b 0cbe b32e 4dbd 9809 aebd cf06 35be
00000340: 0c50 6abd 89ff 90bd 7bd3 f3bd c77a d0ba
00000350: 55f1 3b3e 4e96 343e 2c8f 1abd 2ccd f5bd
00000360: 1aa3 ad3d 7f68 02be f375 ba3d 205f dd3d
00000370: b402 2cbd f8f7 41bd 8066 05be d63e 95bd
00000380: 4435 01be 3b37 25be 823a e13d b03a 0b3e
00000390: 9951 4dbd 5f7f dfbd 1314 023e a034 c73d
000003a0: ad73 bdbd 8a88 123e 4bee 3d3c 3b91 203e
000003b0: 1fd6 ba3d 7654 6ebd dbfc 223e 03fb 5d3d
000003c0: 5b01 73bc 3620 edbd 4e17 813d 424a b53d
000003d0: a254 9c3d 1689 69bd 10ba abbc 29fa 23be
000003e0: 7b45 febd 91a7 e93d 9819 afbd 8cf5 073e
000003f0: 1030 92bc be91 fb3c 5387 cfbd 45d7 18bd
0.05327702 -0.092869885 -0.0917355 0.09230051 -0.100872405 0.15709247 -0.11680505 0.06814883
-0.014431431 -0.10425936 0.099513285 0.18152396 0.033565033 0.025432868 -0.077391475 0.06558766
0.07908708 -0.16721953 0.04311953 0.099451095 0.043103043 0.16728014 0.072768986 -0.11410597
0.025218675 0.10925977 -0.13797069 -0.08612707 -0.12684342 0.17709608 -0.03733748 0.027465604
-0.14683181 -0.13748904 -0.15024795 -0.05755891 -0.14334263 -0.16466182 0.09784731 -0.05957437
-0.14732115 0.19131136 0.0024985138 0.17522421 -0.109205864 0.06703513 0.012426251 -0.060320985
-0.06424259 -0.14202712 0.17090231 -0.022075139 0.10438037 -0.14162491 -0.07772655 -0.12715209
-0.029760288 0.021149859 0.013510292 0.09172885 0.17092346 0.17109077 0.100113936 -0.15241176
0.14178632 -0.10649985 0.057597708 0.11562755 0.026736014 -0.1242582 -0.037687838 0.07234782
0.025846321 -0.0030774076 0.13293818 -0.10423134 -0.13325174 0.14086297 0.13200198 0.0037303504
-0.14823641 -0.16070393 0.010809503 -0.07256485 0.12234336 -0.1252211 -0.062336124 -0.0241683
-0.04973194 0.16635184 -0.025855044 0.050992146 -0.005339813 -0.007947898 -0.060124286 -0.16682325
0.057437867 -0.026831796 0.05785621 -0.06658098 -0.15708107 0.054105055 -0.07905187 0.09120089
0.15022106 -0.034340285 0.11800423 -0.16384956 0.091451965 -0.034979165 0.114638396 0.07884242
0.02159243 0.0023685438 -0.035157945 0.0018820729 0.012435389 -0.055630766 0.052248754 0.07620803
0.117772944 -0.14847046 -0.11608745 -0.02023668 0.030337121 -0.09114542 0.04695737 0.060055833
0.096940674 -0.15865952 0.05328034 -0.08909892 -0.008255539 -0.16245323 0.14583361 0.041880824
-0.02705714 0.14732547 -0.10309767 0.18027844 -0.08175755 0.09785651 -0.080662824 0.014554119
-0.16516778 0.094464235 0.03991476 0.114516154 -0.05394043 0.11380226 -0.07762711 -0.17905362
0.112003416 0.06480155 0.10968549 -0.07674641 -0.09343559 0.19975328 0.10549474 0.14856844
0.050862864 -0.061015382 0.11535936 -0.15717329 0.15630813 -0.08454359 0.055721954 0.05000684
-0.10717157 -0.15362924 0.16411449 -0.112371944 0.0084874155 -0.07354874 0.029168967 -0.11673836
-0.012550332 0.06886828 -0.17348121 0.03423739 0.17694071 -0.16110472 0.08299698 -0.050963048
0.102530435 0.0764663 -0.11216395 -0.090670355 -0.059468456 -0.0020820342 -0.18319592 0.08409912
0.1761169 -0.14117773 0.08921112 -0.116300635 0.15630843 0.009238409 -0.025589988 -0.014886326
-0.067635626 0.026285464 0.006119639 -0.02131501 -0.13682391 -0.050093364 -0.084979236 -0.17678379
-0.057205245 -0.070799895 -0.11905571 -0.0015905731 0.1835378 0.17635462 -0.037734196 -0.12002024
0.08478375 -0.12735175 0.09104528 0.10809159 -0.041994765 -0.047355622 -0.13027382 -0.07287376
-0.12617975 -0.1613435 0.109974876 0.13596606 -0.050126646 -0.10912966 0.1270297 0.09726834
-0.09250579 0.14309898 0.011592458 0.15680401 0.091228716 -0.058186017 0.15916769 0.05419446
-0.014831866 -0.115784094 0.06303273 0.08852054 0.0763333 -0.0570155 -0.020962745 -0.16013397
-0.12415596 0.11408914 -0.085498035 0.13277262 -0.017845184 0.030709144 -0.10133233 -0.037314672

blocks.0.fcn_layer.bias f4 [32]
00000000: 3154 2bbe c64a 853c 4cba 3dbc b082 233e
00000010: b0f4 ef3d 1cae c2bd 8ac1 3e3d d6ce d73d
00000020: f688 943c 6e38 d3bd cfee bfbd 12ee de3c
00000030: a794 273e ea33 c63d ccfb 163d 305a 5ebc
00000040: cc4b 3fbe 45be 06be b6fe f5bd 9337 1a3e
00000050: ed93 0c3d 9a0c 06be 946a 02be 7e88 ecbc
00000060: 4785 2a3e d335 dcbd 635f fabd 81c8 13bd
00000070: c7ee 003e e1c7 d83d 8b4f 15bd 8ac1 0f3a
-0.16731335 0.016271006 -0.011580061 0.15967822 0.11716592 -0.09505865 0.046571292 0.10537498
0.018131714 -0.103134975 -0.09371721 0.02721313 0.163653 0.096778706 0.036861226 -0.013571307
-0.18681258 -0.1315852 -0.12011473 0.15060262 0.03432076 -0.13090745 -0.12735969 -0.028873678
0.16652404 -0.10752454 -0.12225225 -0.036079887 0.12591086 0.10584999 -0.03645281 0.00054838567

blocks.0.layer_norm.weight f4 [32]
00000000: 108f 7a3f 26d7 8b3f a1b6 a33f f02c a53f
00000010: 5a91 803f 3bac 9c3f de85 9d3f 2789 843f
00000020: 6eaa 9d3f d722 ae3f 9661 8c3f d332 8a3f
00000030: f960 803f fbc3 9c3f 0bb4 7d3f 57f5 863f
00000040: e04a 7f3f 487b 9e3f 36c5 853f e619 803f
00000050: a79f 813f 5b20 803f 8983 a93f b530 823f
00000060: 5bb5 813f 859a 7f3f 05be 893f 3108 873f
00000070: 208a 803f 6bbe 803f db90 9b3f d772 803f
0.97874546 1.0925033 1.2790109 1.2904339 1.0044358 1.224006 1.2306478 1.0354356
1.2317636 1.3604382 1.0967281 1.079676 1.0029594 1.2247308 0.9910285 1.0543622
0.99723625 1.2381372 1.0450809 1.0007904 1.0126847 1.0009874 1.3243266 1.0171114
1.013347 0.99845153 1.0761114 1.0549375 1.0042152 1.0058111 1.2153581 1.0035046

blocks.0.layer_norm.bias f4 [32]
00000000: 3e74 6bbc 5233 223d 9c29 843e 5f4f 873e
00000010: cb11 c63b c7b1 713e a54a 6f3e b575 b43c
00000020: 18d1 6b3e 6410 933e 3fdf 9d3d 0aca 463d
00000030: 8760 f13b 046a 6e3e d54c 30bc 74fc bf3c
00000040: 8828 8bbb 3bfe 733e 894c 183d 835b 093b
00000050: e5cb 853c 23e0 af39 fb1a 8c3e f21f 453c
00000060: a664 0f3c 4fc8 dfbb e3ff 953c 9d9a 413d
00000070: a4e9 7d3b 5f7b 933b 24cd 6e3e 509b 1b3b
-0.014370976 0.039599724 0.25812995 0.26427743 0.0060446016 0.23602973 0.23368318 0.022028783
0.23028982 0.28723443 0.077085964 0.048532523 0.0073662433 0.23282629 -0.010760506 0.023435809
-0.004246775 0.2382745 0.037182365 0.0020959086 0.016332576 0.00033545596 0.27364334 0.012031542
0.008752024 -0.0068292986 0.018310493 0.04726659 0.0038743997 0.004500791 0.23320442 0.0023743697

last_layer.weight f4 [1, 32]
00000000: bcb4 cbbd da45 263e 7945 a6be 532b 9abe
00000010: 0568 303e 7c00 a9be 83b4 b7be 459d 4f3d
00000020: b05e bbbe 61a2 b3be 72a7 283e e361 783e
00000030: 9a22 0cbc a016 bfbe 082b b33d ba7e 263e
00000040: 445f 8d3d 7870 adbe 0770 593e 56c7 32bd
00000050: a070 363e 8212 53bc e455 a7be 87ca 233e
00000060: 3177 213e e9bb bcbd f3a7 253e 4bcd a13d
00000070: d763 ad3c 3d16 c93d d6ed a5be 4022 0b3d
-0.09946582 0.16237584 -0.32474878 -0.3011118 0.1722718 -0.33008182 -0.35879907 0.050687093
-0.36595678 -0.35084823 0.16470125 0.24256091 -0.0085531715 -0.3732195 0.08748442 0.1625928
0.06902936 -0.3387487 0.21234141 -0.043647133 0.178164 -0.012882831 -0.32682717 0.15995227
0.15768124 -0.092155285 0.16177349 0.07900485 0.021165771 0.09818695 -0.32408017 0.03396821
