hi.onnx (onnx, 205430 bytes, 9 tensors)

layer1.weight f4 [32, 1536]
0	0xbc757b2b	-0.014982979
1	0xbc7fdb0a	-0.015616188
2	0xbbb7d133	-0.0056096553
3	0xbcd62a43	-0.026143199
4	0xbbb5cad0	-0.005547859
5	0x3cd3414c	0.025787972
6	0x3adb1d04	0.0016717021
7	0xbbae085e	-0.005311056
8	0xbc7adee5	-0.015311931
9	0xbc5f9b18	-0.013647817
10	0x3cc25ce2	0.02372593
11	0x3bf217cd	0.007388091
12	0x3a0101ce	0.00049212284
13	0xbbbd69c7	-0.005780432
14	0xbbf449d3	-0.0074550896
15	0x3ccb4dbe	0.024817344
16	0x3bc1ad60	0.0059105605
17	0xbbe0f8ae	-0.0068655824
18	0xbceee69a	-0.029162694
19	0xbc146f87	-0.009059793
20	0x3c1e7b39	0.009672933
21	0xbc2b5eea	-0.010459641
22	0x3c478caf	0.012179538
23	0x3cbcae76	0.023032408
24	0xbcb5573c	-0.022136323
25	0x3bdde0af	0.006771169
26	0xbc45e7c7	-0.012079186
27	0x3ca7d8af	0.020489065
28	0x3caa5227	0.020791126
29	0x3c35ec86	0.011103755
30	0xbc663e31	-0.0140529135
31	0x3c665727	0.014058865
32	0x3cc20074	0.023681857
33	0xbcbc3d65	-0.022978494
34	0x3bbf28bc	0.0058337133
35	0xba4da8c6	-0.00078452786
36	0x3c879cff	0.016554354
37	0xbc22b5af	-0.009931012
38	0xbc5f5c81	-0.0136328945
39	0x3c5a3a20	0.013319522
40	0xbc465e49	-0.01210744
41	0x3c0af809	0.008481988
42	0xbbad2873	-0.005284363
43	0xbcbfb4fc	-0.02340173
44	0x3c4c315f	0.012462943
45	0xbc8a38d7	-0.016872806
46	0xbc425247	-0.011860437
47	0x3c3187fc	0.010835644
48	0xbcd00f00	-0.025397778
49	0x3bd9524d	0.0066321255
50	0x3c22d3ad	0.009938163
51	0x3c276706	0.010217434
52	0x3b85aa37	0.004079129
53	0x3ca1e635	0.019763092
54	0xba0526ec	-0.0005079347
55	0xbcdc6c04	-0.026906975
56	0x3c1963d6	0.009362182
57	0x3c9ad3ff	0.018899916
58	0xbb0a1ff4	-0.0021076174
59	0x3c59b497	0.013287685
60	0x3cf918ca	0.030407328
61	0x3c90dcd6	0.017683428
62	0xbc7e3e3b	-0.015517767
63	0xbc95710d	-0.018242383
64	0xbb487df1	-0.0030592645
65	0x3c69d839	0.014272743
66	0x3c0fe246	0.008781975
67	0xbc4feeae	-0.012691183
68	0x3c07a3ae	0.00827877
69	0xbc91b056	-0.017784279
70	0xbc38fa10	-0.011290088
71	0x3cc7f5c0	0.024409175
72	0x3cad67fb	0.021167746
73	0xbb8c5cd4	-0.004283527
74	0x3cd7a7ce	0.026325133
75	0xbc402617	-0.011727831
76	0xbc2818a7	-0.010259784
77	0x3c1a0d7f	0.009402632
78	0x3c3eb9ae	0.011640949
79	0xbcc6e3d3	-0.024278557
80	0x3c7e6ca4	0.015528832
81	0x3c541f35	0.012946893
82	0xbbab6e90	-0.005231686
83	0x3cb5a365	0.02217264
84	0xbad53e5a	-0.0016269193
85	0xbcc03ca5	-0.023466418
86	0xbd200bd0	-0.039073765
87	0xbc992e63	-0.018698877
88	0x3d013d82	0.0315528
89	0xbac2b3ec	-0.0014854646
90	0xbc8de71a	-0.017322112
91	0x3c4b7ca0	0.01241985
92	0x3bf055b3	0.007334435
93	0xbcc74393	-0.024324214
94	0xbc15dbfe	-0.0091466885
95	0xbace5708	-0.001574249
96	0xbc87cab4	-0.016576149
97	0xbca190fd	-0.019722456
98	0xbc035a28	-0.0080171
99	0xbcb3a96c	-0.021931373
100	0xbc4dcdcd	-0.012561274
101	0xbc9f4f7b	-0.019447079
102	0x3cb89bee	0.02253529
103	0xbc9f832f	-0.019471733
104	0xbd096ac3	-0.03354908
105	0x3c768c66	0.015048122
106	0xbc61b1fe	-0.013775347
107	0x3bf3a0a1	0.00743492
108	0x3cac90c6	0.021065127
109	0xbc3b6952	-0.011438685
110	0xb9b641a2	-0.00034762645
111	0x3c4aa812	0.012369173
112	0xbc1ab6e3	-0.009443018
113	0xbb8a27c5	-0.0042161667
114	0x3cf14e8f	0.029456405
115	0x3c535c4b	0.012900422
116	0x3b996c7e	0.0046821227
117	0xbc9fd012	-0.019508395
118	0x3ba17dc8	0.0049283244
119	0x3c122398	0.008919619
120	0x3a54c3e7	0.000811635
121	0xbb99d090	-0.004694052
122	0x3c944f89	0.018104332
123	0xbba6db45	-0.005092057
124	0x3cb20e8f	0.021735458
125	0x3bbba481	0.0057263975
126	0xbc89be5e	-0.016814407
127	0x3cc1a9d9	0.02364056
128	0x3cbf5555	0.02335612
129	0xbc93df32	-0.018050764
130	0xbc28df64	-0.010307167
131	0x3b6cf485	0.0036156487
132	0xbb81edfd	-0.003965138
133	0x3c98ddb1	0.018660398
134	0x3ad64439	0.0016347236
135	0x3c318377	0.010834566
136	0x3cd9a8fc	0.026569836
137	0xbc72f792	-0.014829533
138	0xbbb455a0	-0.0055033714
139	0x3cb69823	0.022289341
140	0xbc7ebb66	-0.015547609
141	0x3ca44e12	0.020056758
142	0xbb08ef91	-0.0020894746
143	0x3cd1a124	0.025589533
144	0xbb8adc1a	-0.004237664
145	0x3bb217fd	0.0054349885
146	0xbbd7a7d0	-0.006581284
147	0xbc99b298	-0.018761918
148	0xb9e50b1e	-0.00043686567
149	0x3ac1a983	0.001477525
150	0xbc1d8843	-0.009615007
151	0xbcbadc5e	-0.022810157
152	0xbcf30942	-0.0296675
153	0x3c9e2a59	0.019307302
154	0x3cc3af4c	0.023887299
155	0x3caf2b6a	0.021383006
156	0x3bb06e47	0.00538424
157	0x3c74d49f	0.014943271
158	0xbcb1f38e	-0.021722581
159	0xbbb83b9e	-0.0056223413
160	0x3c00f3d0	0.007870629
161	0xbbc74aa9	-0.006081898
162	0xbc51b6c7	-0.012799925
163	0x3c8fb7b7	0.017543657
164	0xbcac6430	-0.021043867
165	0xbbf0d9fa	-0.0073502036
166	0xbcb4d6f0	-0.022075146
167	0x3c320fff	0.010868072
168	0xbca36dbd	-0.019949788
169	0x3cddb8a3	0.02706558
170	0xbcaaaa20	-0.020833075
171	0x3cefa5a7	0.029253794
172	0xbbb10da6	-0.0054032383
173	0xbbf98a30	-0.00761535
174	0x3c65374b	0.013990234
175	0xbc259e12	-0.010108488
176	0x3c2424b0	0.010018513
177	0x3a69618a	0.0008902779
178	0xbce0a950	-0.027424484
179	0x3b07dd28	0.0020731185
180	0xbcc7166c	-0.024302684
181	0xbca28baf	-0.019841997
182	0x3b920a2c	0.004456779
183	0xbcb6c65f	-0.022311388
184	0x3b6ea3d3	0.0036413565
185	0x3c4f13d1	0.012639002
186	0xb9d103ea	-0.00039866503
187	0x3c4907c7	0.012269921
188	0xbc295dfe	-0.010337351
189	0xbcb3c01a	-0.021942187
190	0xbc5f571a	-0.0136316065
191	0xbcc07070	-0.023491114
192	0x389e3e6d	7.545655e-05
193	0x3c86000d	0.016357446
194	0x3afad847	0.0019137942
195	0x3c8a3c04	0.01687432
196	0x3cb9add7	0.022665901
197	0x3b9d4ac0	0.0048001707
198	0x3ca94f81	0.020667793
199	0x3cb1c383	0.021699673
200	0xbc5b4068	-0.013382055
201	0x3c84b39a	0.016198922
202	0x3bed40b4	0.007240379
203	0x3c4bc7cc	0.012437772
204	0xbc403103	-0.011730435
205	0x3c674145	0.014114683
206	0x3ca6f0fc	0.020378582
207	0xbcafaaff	-0.021443842
208	0xbc161057	-0.009159169
209	0x3c66bcb7	0.014083079
210	0x3c3604d7	0.011109552
211	0x3aef6505	0.0018264359
212	0xbc28be97	-0.010299346
213	0x3c4ffdf7	0.012694827
214	0xbb2421ca	-0.0025044554
215	0xbc20eaa1	-0.009821565
216	0x3cacb3b9	0.021081792
217	0x3a9bb9e8	0.0011880966
218	0xbc225b48	-0.009909458
219	0x3d0c58e7	0.03426447
220	0xbc157beb	-0.009123783
221	0xbccdf6f0	-0.025142163
222	0x3ce1a961	0.027546586
223	0xbc858520	-0.01629883
224	0x3b87fb84	0.004149856
225	0x3c7f97f0	0.01560019
226	0xbb3cd485	-0.0028813195
227	0xbc94d3dc	-0.018167429
228	0xbc9325f0	-0.017962426
229	0x3c5c4244	0.013443533
230	0xbd0d9500	-0.034565926
231	0x3ad5ea25	0.0016320391
232	0x3b53c935	0.0032315974
233	0xbcb3df4a	-0.021957058
234	0x3ca763e8	0.020433381
235	0xbb03a1e3	-0.0020085506
236	0x3c5e2e10	0.013560787
237	0xbc6a0d7d	-0.014285442
238	0xbcb70712	-0.022342239
239	0x3c406602	0.011743071
240	0xbc3c58c0	-0.011495769
241	0x3ba1d5cf	0.004938818
242	0x3b32b1c6	0.0027266606
243	0x3af240ba	0.0018482425
244	0xbc922394	-0.01783923
245	0xbbc9b9f8	-0.0061562024
246	0x3c287fe1	0.010284395
247	0x3c03a970	0.0080360025
248	0xbc376449	-0.011193343
249	0xbc8a89e2	-0.01691145
250	0xbb89ba1c	-0.004203094
251	0xbbafdb8f	-0.0053667496
252	0x3cf8a9da	0.030354429
253	0x3cc7c680	0.024386644
254	0xbcb1c77e	-0.02170157
255	0xbb050701	-0.0020298364

layer1.bias f4 [32]
0	0xbc5af256	-0.013363441
1	0xbbf3f707	-0.0074452194
2	0xbb02d316	-0.0019962243
3	0x3c50d6c8	0.01274652
4	0xbbc28278	-0.0059359632
5	0x3c6be08f	0.014396801
6	0xbc7c88ac	-0.0154134445
7	0x3c858c4f	0.016302256
8	0xbcb45a88	-0.022015825
9	0x3c9cf263	0.019158548
10	0x3c8a2e25	0.016867707
11	0xbc0b30d8	-0.008495532
12	0xbca158f7	-0.019695742
13	0x3ba47f13	0.0050200312
14	0x3b79d18a	0.003811928
15	0x3c4e00c3	0.012573424
16	0xbc1adf3b	-0.009452636
17	0x3ca09c39	0.019605743
18	0xbca0603c	-0.019577138
19	0xbc2dbb7e	-0.010603784
20	0x3c9a32d9	0.018823074
21	0xbbc0134b	-0.005861675
22	0xbc3aac9d	-0.011393693
23	0xbc72b6ba	-0.014814073
24	0x3c99de74	0.018782832
25	0x3c80ec1a	0.015737582
26	0xbc647e62	-0.013946148
27	0x3a8b173d	0.0010611784
28	0xbb8924e0	-0.004185304
29	0xbc2903b1	-0.0103158215
30	0x3bf47962	0.007460759
31	0xbc89ff7e	-0.016845461

layernorm1.weight f4 [32]
0	0x3f7d845d	0.99030095
1	0x3f7e1c2c	0.99261737
2	0x3f779163	0.9670622
3	0x3f7c8ab3	0.9864914
4	0x3f77f295	0.96854526
5	0x3f7f08e7	0.9962296
6	0x3f77b7c4	0.9676478
7	0x3f7dfd9c	0.992151
8	0x3f7ea67a	0.99472773
9	0x3f7a0828	0.97668695
10	0x3f72ab86	0.94792974
11	0x3f7bede6	0.9840988
12	0x3f7ebc26	0.9950584
13	0x3f8193b6	1.0123203
14	0x3f762964	0.9615691
15	0x3f7ccf11	0.9875346
16	0x3f7d0e25	0.9884971
17	0x3f88af57	1.067851
18	0x3f839ca8	1.0282183
19	0x3f791e70	0.9731207
20	0x3f8256a0	1.0182686
21	0x3f8026f6	1.001189
22	0x3f70d2b2	0.94071496
23	0x3f7ca6bb	0.9869191
24	0x3f806d16	1.003329
25	0x3f7cd3a8	0.9876046
26	0x3f7ba25f	0.98294634
27	0x3f82115c	1.0161548
28	0x3f7eabd8	0.9948096
29	0x3f7cb03f	0.9870643
30	0x3f7ea55e	0.9947108
31	0x3f80399a	1.0017579

layernorm1.bias f4 [32]
0	0xbc384f89	-0.011249431
1	0xbbc9d0da	-0.0061589302
2	0x3c5de50d	0.0135433795
3	0xbcca4b84	-0.024694212
4	0x3c9b53c2	0.018960837
5	0xbc9415ad	-0.018076742
6	0xba180c00	-0.0005800128
7	0xbc68e752	-0.014215307
8	0xbba7490a	-0.0051051425
9	0xbc175852	-0.009237366
10	0xbb3485e2	-0.002754562
11	0x3c972f7e	0.018455263
12	0x3c9151e6	0.017739248
13	0x3c23872f	0.009980961
14	0xbd3d443d	-0.046207655
15	0xbc8b681b	-0.017017415
16	0xbbc34d72	-0.00596016
17	0x3c568f75	0.013095726
18	0x3d128054	0.035766914
19	0x3b0aff96	0.002120947
20	0x3cdd9e55	0.027053038
21	0xb929a1e6	-0.00016177408
22	0xbd8ca17b	-0.068667375
23	0xbc7dca5a	-0.015490139
24	0x3c32cc96	0.010913035
25	0xbba8d28a	-0.0051520513
26	0xbc6fe22b	-0.014641325
27	0x3c5920fd	0.013252494
28	0xbc2c7a8a	-0.010527262
29	0xbc2eadba	-0.010661537
30	0x3c8d1f09	0.017226713
31	0x3b8b4246	0.004249844

blocks.0.fcn_layer.weight f4 [32, 32]
0	0xbd0c3702	-0.034232147
1	0xb9111a04	-0.00013837969
2	0xbafc898d	-0.0019267068
3	0x3e183556	0.14864096
4	0xbe06b685	-0.13155563
5	0xbe285d33	-0.16441803
6	0xbd93bebc	-0.07214114
7	0x3dbc046e	0.091805324
8	0xbd3e6777	-0.04648539
9	0xbd547ee6	-0.051878832
10	0xbdc84d78	-0.09780401
11	0xbd8dfc72	-0.06932916
12	0x3ddca8a8	0.10774356
13	0xbcd9d400	-0.026590347
14	0x3b98db1c	0.0046647917
15	0x3e13a067	0.14416657
16	0x3e1b6fb0	0.15179324
17	0x3ba24165	0.0049516433
18	0xbe056978	-0.13028514
19	0xbd942fb8	-0.07235664
20	0xbc101885	-0.008794908
21	0x3d8f9d6a	0.07012446
22	0xbda3b1ea	-0.07992919
23	0xbdaaaf02	-0.08334161
24	0x3dc1d872	0.09465112
25	0xbd2ce4f9	-0.042210553
26	0x3ddd43f5	0.108039774
27	0x3d658c71	0.05604214
28	0xbd077d9f	-0.033078786
29	0xbda0edd5	-0.07857863
30	0x3c427476	0.011868587
31	0xbe001906	-0.12509546
32	0xbd8cca35	-0.068745054
33	0xbe2a1c05	-0.16612251
34	0x3e25f71f	0.1620755
35	0xbdaab709	-0.083356924
36	0xbe0307f3	-0.12796001
37	0x3c26e7f5	0.010187139
38	0x3db8165e	0.08988641
39	0xbe31ae40	-0.17351627
40	0xbca421eb	-0.020035705
41	0xbd0e7888	-0.034782916
42	0xbb48c38b	-0.003063413
43	0xbd183cf2	-0.037167497
44	0x3e17ad59	0.1481222
45	0xbd5069e0	-0.05088222
46	0x3c235344	0.009968583
47	0x3e1d8115	0.15381272
48	0x3d228da7	0.03968587
49	0xbe473f79	-0.19457807
50	0xbccd4853	-0.025058901
51	0xbddd2457	-0.10797947
52	0xbd20747d	-0.039173592
53	0xbd7086c3	-0.05872227
54	0x3e29ebf0	0.1659391
55	0x3d37968f	0.04482132
56	0xbd19bdf4	-0.03753467
57	0x3e141eda	0.14464894
58	0x3cb7ae64	0.022422023
59	0xbde72207	-0.11285787
60	0xbc3479e8	-0.011015393
61	0xbde2e20a	-0.1107827
62	0x3ca8d30d	0.02060845
63	0x3ddb2967	0.10701256
64	0x3e246514	0.16054183
65	0x3d6e7715	0.058219034
66	0x3e218c64	0.15776211
67	0x3d9951aa	0.07486279
68	0xbe1b09a4	-0.15140396
69	0x3d3925b2	0.045201965
70	0xbe0b761c	-0.13619274
71	0x3d63d83d	0.055626143
72	0xbde7caf1	-0.11318005
73	0x3bfa2ae8	0.0076345094
74	0xbd21276e	-0.039344244
75	0xbd9aaf27	-0.07552939
76	0xbcd1e11a	-0.025620032
77	0xbe1cb3e1	-0.15302993
78	0x3caa123a	0.020760644
79	0xbe0e1fd2	-0.13879326
80	0xbda393ed	-0.07987199
81	0xbd002dd4	-0.031293705
82	0x3bf8460b	0.007576709
83	0x3d6aee16	0.057355963
84	0x3e3eda7a	0.1863803
85	0xbd8b29a3	-0.06795051
86	0x3d39e650	0.04538566
87	0x3caf70c6	0.02141608
88	0xbddd1f7b	-0.1079702
89	0x3ccabcc0	0.024748206
90	0x3e0f6b76	0.14005837
91	0xbd887d00	-0.06664467
92	0xbcb86e89	-0.022513645
93	0x3e015df9	0.12633504
94	0xbdf77f1d	-0.12084792
95	0x3deb30f8	0.114839494
96	0x3d8c8837	0.068619184
97	0x3da65dd2	0.081233636
98	0x3dac6623	0.084179185
99	0x3d731027	0.059341576
100	0xbded4ee0	-0.1158731
101	0x3dd5a5ca	0.104320124
102	0xbe1978e0	-0.14987516
103	0xbe333261	-0.17499687
104	0xbcc42258	-0.023942158
105	0xbe26cb5c	-0.16288513
106	0x3d13ae58	0.03605494
107	0x3d2dfeef	0.04247945
108	0xbdd06bcf	-0.10176813
109	0xbd2a5891	-0.04158837
110	0xbd845af2	-0.06462659
111	0x3d9fbdb3	0.07799854
112	0xbd91509c	-0.07095453
113	0xbcf0b667	-0.029383851
114	0xbdf07d36	-0.11742632
115	0x3decb42b	0.11557802
116	0xbdbff2a5	-0.09372453
117	0xbe1fee18	-0.1561817
118	0x3d0bbe5d	0.03411709
119	0xbce81bdb	-0.028333595
120	0x3e23a0d5	0.15979321
121	0x3d591102	0.052994736
122	0xbe2570cf	-0.16156314
123	0xbcd209ac	-0.025639378
124	0x3d2b2c03	0.04179002
125	0xbe024821	-0.12722827
126	0x3d9a9289	0.075474806
127	0xbd4410c0	-0.047867537
128	0xbe317225	-0.17328699
129	0x3d53f6c3	0.051749002
130	0x3d60202c	0.05471818
131	0xbdfc9f41	-0.12335063
132	0xbcb9e036	-0.02268992
133	0x3dc8082c	0.09767184
134	0xbdaaa2b5	-0.08331815
135	0xbd9eb84f	-0.07749998
136	0xbe03c6f6	-0.12868866
137	0xbcf8463d	-0.03030693
138	0x3e22fdaf	0.15917085
139	0x3e136e12	0.14397457
140	0x3e1ea82b	0.15493838
141	0xbde060e5	-0.10955981
142	0x3aeb975f	0.0017974189
143	0xbe2faeb7	-0.17156492
144	0x3d77989d	0.060448278
145	0xbe1cf4cd	-0.15327759
146	0x3df9b799	0.121932216
147	0xbe0285f5	-0.12746413
148	0x3ce59e9d	0.028029734
149	0x3e595800	0.21224976
150	0x3e50eaba	0.20402041
151	0x3dd87588	0.10569292
152	0xbd1020ad	-0.035187412
153	0xba029fb8	-0.00049829064
154	0x3e22fc20	0.1591649
155	0xbdd2a94b	-0.10286196
156	0xbdb91f72	-0.09039201
157	0xbd18a063	-0.03726233
158	0xbd2ec9d3	-0.042672943
159	0xbe32e427	-0.17469846
160	0x3dfc7b5e	0.12328218
161	0x3e26c541	0.16286184
162	0x3c9b7b9e	0.018979844
163	0x3e139daa	0.14415613
164	0xbdce9210	-0.10086453
165	0xbd8fbe44	-0.07018712
166	0xbd913240	-0.070896626
167	0x3e1dcad9	0.15409411
168	0x3d644abc	0.055735335
169	0xbe20b04d	-0.15692253
170	0x3c040466	0.008057689
171	0x3e1573da	0.14594975
172	0x3e0bf668	0.13668215
173	0x3d8a02cf	0.06738817
174	0x3dccc5c7	0.099986605
175	0x3dc9605a	0.09832831
176	0x3ddd4646	0.10804419
177	0x3e2fe68f	0.17177795
178	0xbdb786d4	-0.08961263
179	0x3e456777	0.1927775
180	0x3e0d6d24	0.13811165
181	0xbd7ddc21	-0.06197751
182	0x3b8702c7	0.004120204
183	0xbe079555	-0.1324056
184	0xbe379d20	-0.17931032
185	0xbdcbb590	-0.0994674
186	0x3e1d6af7	0.15372835
187	0x3dda9f1a	0.106748775
188	0xbdf41b13	-0.119192265
189	0x3e0326d2	0.12807778
190	0xbe1ac1fc	-0.15113062
191	0x3e2fbb5d	0.17161317
192	0x3d2cd4b8	0.042195052
193	0xbe24a217	-0.16077457
194	0xbc0cb0f4	-0.008587111
195	0xbd8858c5	-0.066575564
196	0x3ce05787	0.027385486
197	0x3d473612	0.04863555
198	0xbcbdbb96	-0.023160737
199	0x3dcdb920	0.100450754
200	0x3e0a728b	0.13520257
201	0x3d6bd05c	0.057571754
202	0xbddcc348	-0.107794344
203	0x3d16c4b0	0.03680867
204	0x3d36f682	0.044668682
205	0x3d842bfe	0.06453703
206	0x3d739c81	0.059475426
207	0xbd8c75cd	-0.06858406
208	0xbe128d0d	-0.14311619
209	0x3e2491f2	0.16071299
210	0x3b545856	0.0032401285
211	0xbd4fb1bf	-0.05070662
212	0xbe3c5a0d	-0.18393727
213	0x3ad0ae7f	0.0015921145
214	0x3db26a59	0.087116905
215	0x3defbfed	0.11706529
216	0xbe37a655	-0.17934544
217	0xbd2ac11b	-0.041688066
218	0xbb1b819b	-0.0023728374
219	0x3dfb6f34	0.1227707
220	0xbe18f4a0	-0.14937067
221	0x3d53ffed	0.05175774
222	0xbcbd2667	-0.0230896
223	0x3e31fff6	0.17382798
224	0xbdda5489	-0.10660655
225	0x3d1f74bc	0.038929686
226	0xbdf9b9f4	-0.12193671
227	0x3e138681	0.14406778
228	0x3d4a4076	0.04937788
229	0x3e3048bc	0.17215246
230	0x3d6b2ef1	0.057417814
231	0xbd5dc5c3	-0.05414368
232	0x3e167403	0.14692692
233	0xbe14c78a	-0.14529243
234	0xbe1e72c9	-0.15473475
235	0xbe0613b3	-0.13093452
236	0x3cd6018d	0.026123786
237	0x3cae3e3a	0.021269906
238	0x3c069ee3	0.0082165925
239	0xba6b3ab0	-0.00089732837
240	0xbe0319d4	-0.12802821
241	0x3da25358	0.07926053
242	0xbcd62c7b	-0.026144257
243	0xbd8fcf8e	-0.0702201
244	0x3c955643	0.01822961
245	0x3d1f1fb4	0.038848594
246	0x3da3fb14	0.08006874
247	0x3e299885	0.16562088
248	0xbd59a008	-0.053131133
249	0x3d22c57a	0.03973911
250	0x3d61e4cf	0.05514985
251	0xbd12025b	-0.035646778
252	0xbe0d3959	-0.13791408
253	0x3e357a17	0.17722355
254	0xbdc4fcaa	-0.09618504
255	0xbcc05423	-0.02347762

blocks.0.fcn_layer.bias f4 [32]
0	0xbdacaaf5	-0.08431045
1	0xbe3cd3ea	-0.18440214
2	0x3d11dec7	0.035612848
3	0x3d915e5e	0.07098077
4	0x3d61b274	0.055101827
5	0xbd8c2e82	-0.06844808
6	0xbd371186	-0.044694446
7	0xbdd19465	-0.10233382
8	0xbd9abf6f	-0.07556044
9	0x3e240a12	0.16019467
10	0x3dcee6f2	0.10102643
11	0x3e265ea7	0.16247045
12	0xbc8796b2	-0.01655135
13	0x3e18736b	0.14887778
14	0x3c9a593b	0.018841377
15	0x3d8dc227	0.06921797
16	0x3db7ffb8	0.08984321
17	0xbd81acc2	-0.06331779
18	0xbda46bb1	-0.08028353
19	0xbd25fc5d	-0.040523876
20	0xbe079f87	-0.13244449
21	0xbdc0bbda	-0.0941083
22	0x3e0048fb	0.1252784
23	0xbe169d7c	-0.14708513
24	0x3dfc184d	0.123093225
25	0x3dd804c5	0.10547785
26	0xbdec9d64	-0.115534574
27	0xbde58696	-0.11207311
28	0xbde502d9	-0.11182184
29	0x3d934019	0.0718996
30	0x3d4a69e7	0.049417403
31	0xbe1f76e5	-0.15572698

blocks.0.layer_norm.weight f4 [32]
0	0x3f8038e0	1.0017357
1	0x3f82205a	1.0166123
2	0x3f7dfa2c	0.99209857
3	0x3f8030be	1.0014875
4	0x3f893138	1.0718145
5	0x3fa20ace	1.2659547
6	0x3f9c80bf	1.222679
7	0x3f7f7809	0.99792534
8	0x3f9d2265	1.2276121
9	0x3fa29c89	1.2704021
10	0x3f803bd0	1.0018253
11	0x3f81548b	1.0103925
12	0x3f800011	1.000002
13	0x3f8010c7	1.000512
14	0x3f9f1944	1.2429585
15	0x3fb338c6	1.4001701
16	0x3fa3192d	1.2742058
17	0x3f8009f9	1.0003043
18	0x3f7f6030	0.99756145
19	0x3f7fdaf2	0.9994346
20	0x3f7f6509	0.9976354
21	0x3f811a82	1.0086215
22	0x3fa13aac	1.259603
23	0x3fa8d4af	1.3189906
24	0x3f812c36	1.0091617
25	0x3f9e0fa3	1.2348522
26	0x3f8a98cb	1.0827879
27	0x3f854895	1.0412775
28	0x3f809042	1.0044024
29	0x3f7c16ff	0.9847259
30	0x3f82211f	1.0166358
31	0x3f7d9d76	0.9906839

blocks.0.layer_norm.bias f4 [32]
0	0x3bef65fa	0.0073058577
1	0x3c259c34	0.0101080425
2	0xbc1ee54d	-0.009698224
3	0x3b75fdf9	0.0037535413
4	0x3caa9a7a	0.020825613
5	0x3e8342a7	0.2563679
6	0x3e71cef0	0.23614097
7	0xbc364876	-0.0111256745
8	0x3e750d23	0.23930793
9	0x3e83b17e	0.25721353
10	0x3963c73d	0.00021722629
11	0x3c3cfc92	0.011534827
12	0xb8c6a708	-9.472488e-05
13	0x3ac86b9c	0.0015290859
14	0x3e7a795f	0.24460362
15	0x3e9ee329	0.31032684
16	0x3e85eb6d	0.26156178
17	0xbbc8b7fe	-0.006125449
18	0xbb7541f6	-0.003742335
19	0xba367b14	-0.0006961089
20	0x3baea277	0.005329426
21	0x3ad3d1c0	0.0016160533
22	0x3e816b25	0.25277057
23	0x3e8f49e8	0.27986073
24	0x3c314a0e	0.010820879
25	0x3e7cd899	0.24692
26	0x3d1e6849	0.038673673
27	0x3dbb8d05	0.09157757
28	0xba350d1d	-0.0006906556
29	0xbcad06df	-0.02112144
30	0x3c9265fe	0.0178709
31	0xbb567038	-0.0032720696

last_layer.weight f4 [1, 32]
0	0x3d566395	0.052341063
1	0x3dbad845	0.091232814
2	0xbc8f0793	-0.017459666
3	0xbc914198	-0.017731473
4	0x3d740729	0.05957714
5	0xbea66bcb	-0.32504115
6	0xbeb04efd	-0.34435263
7	0xbc9111b1	-0.017708631
8	0xbeb00b53	-0.3438364
9	0xbea562e0	-0.32301998
10	0x3e232492	0.15931919
11	0x3c922fba	0.017845023
12	0xbd1a7ef3	-0.037718724
13	0xbe26adc9	-0.16277231
14	0xbeb0cc3a	-0.34530813
15	0xbeac1aaa	-0.33614093
16	0xbea306c5	-0.31841102
17	0xbdb6a3d0	-0.089179635
18	0x3dcffdd7	0.10155838
19	0x3d55a049	0.052154813
20	0xbc6d9ee6	-0.014503216
21	0x3c85c9e0	0.016331613
22	0xbea4382e	-0.32074112
23	0xbe9c9466	-0.3058197
24	0x3d80d90f	0.06291401
25	0xbea22996	-0.31672353
26	0x3dafa108	0.08575636
27	0xbcb4556a	-0.022013385
28	0x3e277367	0.16352616
29	0xbdb4cd7a	-0.08828254
30	0x3dbf8e57	0.09353321
31	0xbd0e7f39	-0.034789298
